…
   | 13/20 [00:20<00:11,  1.66s/it]epoch 4:  70%|███████   | 14/20 [00:21<00:09,  1.62s/it]epoch 4:  75%|███████▌  | 15/20 [00:23<00:08,  1.65s/it]epoch 4:  80%|████████  | 16/20 [00:25<00:06,  1.68s/it]epoch 4:  85%|████████▌ | 17/20 [00:26<00:04,  1.58s/it]epoch 4:  90%|█████████ | 18/20 [00:28<00:03,  1.59s/it]epoch 4:  95%|█████████▌| 19/20 [00:29<00:01,  1.54s/it]epoch 4: 100%|██████████| 20/20 [00:30<00:00,  1.22s/it]epoch 4: 100%|██████████| 20/20 [00:30<00:00,  1.51s/it]
Self atomic energies:  tensor([-19.4591, -19.4591], dtype=torch.float64)
ANIModel(
  (0): Sequential(
    (0): Linear(in_features=384, out_features=160, bias=True)
    (1): CELU(alpha=0.1)
    (2): Linear(in_features=160, out_features=128, bias=True)
    (3): CELU(alpha=0.1)
    (4): Linear(in_features=128, out_features=96, bias=True)
    (5): CELU(alpha=0.1)
    (6): Linear(in_features=96, out_features=1, bias=True)
  )
  (1): Sequential(
    (0): Linear(in_features=384, out_features=144, bias=True)
    (1): CELU(alpha=0.1)
    (2): Linear(in_features=144, out_features=112, bias=True)
    (3): CELU(alpha=0.1)
    (4): Linear(in_features=112, out_features=96, bias=True)
    (5): CELU(alpha=0.1)
    (6): Linear(in_features=96, out_features=1, bias=True)
  )
  (2): Sequential(
    (0): Linear(in_features=384, out_features=128, bias=True)
    (1): CELU(alpha=0.1)
    (2): Linear(in_features=128, out_features=112, bias=True)
    (3): CELU(alpha=0.1)
    (4): Linear(in_features=112, out_features=96, bias=True)
    (5): CELU(alpha=0.1)
    (6): Linear(in_features=96, out_features=1, bias=True)
  )
  (3): Sequential(
    (0): Linear(in_features=384, out_features=128, bias=True)
    (1): CELU(alpha=0.1)
    (2): Linear(in_features=128, out_features=112, bias=True)
    (3): CELU(alpha=0.1)
    (4): Linear(in_features=112, out_features=96, bias=True)
    (5): CELU(alpha=0.1)
    (6): Linear(in_features=96, out_features=1, bias=True)
  )
)
training starting from epoch 0
RMSE: 37.85256755205022 at epoch 0
RMSE: 53.902773267404974 at epoch 1
RMSE: 10.97483483190627 at epoch 2
RMSE: 5.628443457016262 at epoch 3
RMSE: 4.48764258674049 at epoch 4
torch.float32
torch.Size([1250, 12])
torch.Size([1250, 12, 3])
torch.Size([1250])
torch.Size([1250])
[NbConvertApp] Converting notebook Testing.ipynb to script
…
